start/app/src/main/assets/mnist.tflite (tflite, 116608 bytes, 6 tensors)

sequential/dense/BiasAdd/ReadVariableOp f4 [10]
00000000: 261e ea3b 98b6 193e d704 053d c85d 2cbd
00000010: 4186 09bd 3638 a33c ed24 a83b 9f7a 883d
00000020: 9894 dbbd 5ef4 57bd
0.0071447073 0.1501106 0.03247532 -0.042081624 -0.0335753 0.019924264 0.005131355 0.06664013
-0.107217014 -0.05272328

sequential/conv2d/BiasAdd/ReadVariableOp f4 [32]
00000000: f2cb 06be 585e 43bd 1d28 883c 18f8 a93d
00000010: 3a92 b9bd 6a6c fbbc dc0c e9bd 41ad 71bc
00000020: d89d 77bc 2f3a 883d 2224 983b 75c1 a4bc
00000030: 4680 b6bc 13c2 babc 04ba f8bb 3e23 43bd
00000040: d313 dfbc 45d3 1d3d 9534 abbd 1931 24bc
00000050: 8564 90bc eea3 bbbd 16d1 f9bc 6a9c 6f3d
00000060: 4c6a 1ebc c5d3 2abd e0ac 3abd aa49 42bb
00000070: 0799 12be 4412 a5bc 4832 59bd 379a da3c
-0.13163736 -0.047697395 0.01662069 0.08299273 -0.09061094 -0.030691344 -0.11379406 -0.01475078
-0.0151133165 0.06651723 0.0046429792 -0.020111779 -0.022277962 -0.02279762 -0.007590534 -0.04764103
-0.027231133 0.03853156 -0.083596386 -0.010021471 -0.017626056 -0.091621265 -0.030495208 0.058498777
-0.009668898 -0.041705865 -0.045575023 -0.0029645958 -0.14316188 -0.020150311 -0.053026468 0.026684863

sequential/conv2d_1/BiasAdd/ReadVariableOp f4 [64]
00000000: d8bb 1cbc b2ea 6bbd d39e 65bc aa95 81bd
00000010: f953 86bd b9d7 06bd c864 93bd be13 0ebd
00000020: 9f28 5abd 000e 853c fc85 80bd f304 54bc
00000030: 4fe2 a8bd 6d66 833d 1cd4 cfbd c892 09bd
00000040: e17e 8abc f3ae 4cbd f30e 8dbc c954 a9bd
00000050: e272 003d a4c1 13bd 3106 143d 29d7 41bd
00000060: b598 6dbc f70c 8a3c 069d 28bd e66c 28bd
00000070: 0ba8 153d d09e 35bc 2b7a d8bb be7f 0abd
00000080: 76ef e1ba b1b9 d9bc fea4 19bb 45db bebc
00000090: ee6f 2fbc 10cf 18bd a20e 333d bbd6 67bc
000000a0: 2fc2 66bc 509a f5b9 0511 a0bd f1ad 45bd
000000b0: 3258 85bc 456f ddbc 1a1a 77bd 3d05 83bc
000000c0: 59df b03c 25d2 b9bd b7e0 94bd 8666 f93c
000000d0: 7667 48bd f566 f5bc 5725 db3c 1d11 05bd
000000e0: 3607 953c 6cc7 2cbd 5b6a c83a 93f0 20bd
000000f0: cd52 b5bd 84c3 353d e442 7ebd 269d adbd
-0.00956627 -0.05759687 -0.014014917 -0.06327374 -0.06558985 -0.032920573 -0.07196957 -0.034686796
-0.053261396 0.016242027 -0.062755555 -0.012940633 -0.0824629 0.064160205 -0.101478785 -0.033587247
-0.016906204 -0.049971532 -0.017219042 -0.082681246 0.03135956 -0.036073342 0.036138717 -0.047324333
-0.01450174 0.016851885 -0.041165374 -0.04111948 0.03653721 -0.011085227 -0.0066063604 -0.03381323
-0.0017237503 -0.026577802 -0.002344429 -0.023297915 -0.010707838 -0.037306845 0.043715127 -0.014150317
-0.014084383 -0.00046845013 -0.07815746 -0.048261587 -0.016277406 -0.027030597 -0.060327627 -0.015993709
0.021590875 -0.09073285 -0.072694235 0.030444395 -0.048926793 -0.02995632 0.026751203 -0.032487024
0.018191915 -0.04218237 0.0015290485 -0.03929193 -0.088536836 0.04437591 -0.06207551 -0.08477239

sequential/conv2d/Conv2D f4 [32, 3, 3, 1]
00000000: d181 7ebe b8ff b63d b6ef 103d e652 033e
00000010: c61b 133d d89b 8bbc f179 f33d 7416 30bc
00000020: d7c0 483b 9d0f 7b3e ef08 183e 1ac1 b0be
00000030: 41b5 95bd 4b42 d1bc 85f1 1abe 4f47 5fbd
00000040: 8342 6a3e e723 693e f255 af3e 2d48 ed3d
00000050: f9c9 23be a886 e0be 58d8 dfbe 62fa c1bd
00000060: 01af f2bc 1aed 883e 07c3 4d3e 0ea7 a23e
00000070: edd9 7d3e fa20 393e 47ec b3bd 7fb7 dfbd
00000080: 0b6d 5e3d f762 8ebe 9082 a1be af00 64be
00000090: a2ff c3bc b459 c7bd 9cd8 cfbd ed44 89bd
000000a0: 94d1 f6bc c5b1 123e e8fa 6dbc df51 c43c
000000b0: 1d27 a03d b848 a43d a015 ac3b 54af ff3d
000000c0: 70ad fb3d c9b3 073e 57c7 cb3c e416 78be
000000d0: 20a0 38be 35aa 18bd 716d efbb 7dc7 27bc
000000e0: fc5a 173d d0e6 ad3d 202b 8ebd 2f06 f8bd
000000f0: 99f1 23bc 752c d43d a93f 533a 888a 6c3e
00000100: 3855 febd c573 7cbe 7bab f43d b5ba 10be
00000110: cbb9 2cbe 60d2 733e 949d 0f3d 7c51 fd3d
00000120: 8a9b 15be 4091 2f3e 41e3 20bd 1eea ab3c
00000130: 791a 853e 7fcb 66be 9711 f83b 5bfb 083e
00000140: e110 2abe e3e4 13bf 36c1 2fbe 4d93 8e3d
00000150: 339a 34be 8b18 ad3d 62a2 9e3e 1f83 e0bd
00000160: 74b8 e43d 3f6c 533e 87ef 45be 6e04 79be
00000170: 3481 6cbe 1171 403d f8b9 8b3d ed42 c13d
00000180: 0c7f 873e 0520 733c f85a 0f3e 6450 0cbe
00000190: 2978 19be 1928 63be 1113 943d 4239 65bd
000001a0: 5c99 fb3d adbd 4f3e 4f02 6d3e 8ac9 dabb
000001b0: b263 f13d e679 1dbe 06b5 9cbe c806 1e3e
000001c0: fff6 7e3d 621f f6bd dd47 8a3e 444a b83d
000001d0: 119a 9dbc 95b4 a8bd 7659 72bd a687 1b3e
000001e0: 40b9 02be d395 14be 77e2 7a3e cb73 e13d
000001f0: cbcf d4bc be84 9a3d 0bcb 0fbd 320a ca3d
00000200: ed32 4fbd f639 de3d 7a24 703e ed01 4b3e
00000210: d98b fabe 19ac 37be e96f 973e 24c4 163e
00000220: d682 243e d2df bf3d 7ec1 40be 3b69 573d
00000230: e807 9e3c 3e97 7cbe 10f5 53bd 850e 003e
00000240: bc27 103e 82a0 1b3e 718e 653d ad78 fd3d
00000250: 6c35 00bc 4b1b 21be d7c6 4fbd 78e6 39bd
00000260: 89d4 42bd c5d1 66be e934 94be 127e 08be
00000270: be9d 723d 9c0e 7dbd 9651 8cbe 97e2 653e
00000280: 1c46 573e da1f 68bc f7ef 9dbb 8090 823d
00000290: ff0b adbd 0387 bd3d 0b98 a13d 502a 0d3e
000002a0: af36 7dbe cee1 993d f7cb 57bb defb 723e
000002b0: 339e 14bd a076 263d 483f a73e 0acf 573e
000002c0: fcb0 90be c9b1 c03d 988a 94bd 7781 d6be
000002d0: 8d43 1dbb e814 44bd 4f00 2ebe 7712 2c3e
000002e0: dd0c 05be bf1a a2bd f6ac a33e d1c9 4f3e
000002f0: e290 54bc 6e3b 78bc 8ab4 bf3d 1115 953d
00000300: 10cf 21bc 5357 3d3e 33ae 133e 40c1 59be
00000310: 6251 1fbe ec37 993d fc2a a5be ec9a 19be
00000320: ddcc 0d3e 2cf7 d03d 0e33 893d a0dc 8c39
00000330: dc83 4f3e 4c8d f03c b8d4 533d a3cd 66be
00000340: d33d abbe 1dd4 d7be 1c1b 173e 31c0 a93d
00000350: 254e 2ebe b97d de3d ae03 893e 367c 0f3d
00000360: aef6 c03e 0a17 613e 6a53 b5bc 961e 4f3d
00000370: 404d 25be 2bff 983b a7ec 59bd 7c57 27be
00000380: 0d92 88be 4bd4 d63d 13f6 503e af13 4cbd
00000390: 4ba1 73be 9009 aabd 86bb 83be 333e 203e
000003a0: 696e aa3d b525 123d a8a2 803c 8bd7 1e3e
000003b0: 67f1 633e e7e7 2ebd d07d fbbd 2d71 193e
000003c0: 67ea 16be 2143 ccbd ee58 813d 4060 7ebe
000003d0: 4a4f b43d 613c 033f b98f d33c 0bf3 8e3e
000003e0: 8344 a13d 73b3 1bbc 467d c6bd a5f5 1fbe
000003f0: b0af f73d d338 ce3c d74e 16be 55af bc3d
-0.24854209 0.08935493 0.035384856 0.12824592 0.03591516 -0.017042086 0.11888493 -0.010747541
0.003063252 0.24517675 0.14847158 -0.34522325 -0.07309962 -0.025544306 -0.15131195 -0.054511365
0.22876935 0.22767602 0.3424526 0.11586032 -0.15995015 -0.43852735 -0.43719745 -0.09471585
-0.029624464 0.26743394 0.20093928 0.31768078 0.24790163 0.18078986 -0.08785301 -0.10923671
0.05430321 -0.2780988 -0.31544924 -0.22265886 -0.023925606 -0.097339064 -0.10148737 -0.067026
-0.030129232 0.14325626 -0.014525153 0.02396482 0.0781996 0.080216825 0.0052516013 0.12484613
0.1228894 0.13252176 0.024875326 -0.24227482 -0.18029833 -0.037271697 -0.0073067476 -0.010240433
0.036952004 0.084912896 -0.06941819 -0.121105544 -0.010006332 0.10360042 0.00080584973 0.2309972
-0.12418598 -0.24653538 0.1194677 -0.14133723 -0.1686775 0.2381072 0.035062388 0.123690575
-0.14610115 0.17145252 -0.039279226 0.02098566 0.2599676 -0.22538565 0.0075704562 0.13377135
-0.16608001 -0.5777113 -0.17163548 0.06961689 -0.17636947 0.08451947 0.30983263 -0.10962509
0.11167994 0.20646761 -0.19329654 -0.24318096 -0.23096162 0.04698283 0.0682258 0.09436593
0.26464117 0.014839177 0.13999546 -0.13702542 -0.14987244 -0.22183265 0.07230199 -0.05596281
0.1228511 0.202872 0.23145412 -0.0066768574 0.117865935 -0.15378532 -0.3060686 0.15432274
0.062247273 -0.120177045 0.27007952 0.0899854 -0.019238504 -0.08237568 -0.059167348 0.15188465
-0.1276598 -0.14510278 0.24500452 0.11008414 -0.02597799 0.0754485 -0.035105746 0.09865226
-0.050585676 0.10850899 0.23451415 0.19824953 -0.4893482 -0.17936744 0.29577568 0.14723259
0.16065535 0.09368862 -0.18823811 0.05259059 0.01929088 -0.2466707 -0.05174738 0.12505539
0.14077657 0.15197948 0.056044046 0.12376533 -0.007825237 -0.15733068 -0.050726738 -0.045385808
-0.04756597 -0.22540958 -0.28946617 -0.13329342 0.059232466 -0.06178151 -0.27405995 0.22449718
0.21022838 -0.01416775 -0.004819866 0.063752174 -0.08449554 0.09254267 0.07890328 0.13785672
-0.24727891 0.07513772 -0.003292797 0.23728892 -0.036283683 0.040640473 0.32665467 0.21075073
-0.28260028 0.0940891 -0.07252997 -0.4189565 -0.0023996562 -0.0478715 -0.16992305 0.16803919
-0.12993188 -0.07915258 0.31967896 0.2029183 -0.012973996 -0.015150888 0.09360607 0.07279409
-0.009876028 0.18490343 0.1442192 -0.21265125 -0.15558389 0.074813694 -0.32259357 -0.15000504
0.1384768 0.10203394 0.06699191 0.0002686726 0.20265144 0.02936425 0.051716536 -0.22539382
-0.33445606 -0.42154017 0.14756435 0.08288611 -0.17021997 0.108638234 0.2676062 0.035030566
0.37688202 0.21981445 -0.022134501 0.05056628 -0.1614275 0.0046690903 -0.053204205 -0.16341966
-0.26673928 0.104897104 0.2040637 -0.04982346 -0.23791997 -0.08302605 -0.25729007 0.15648727
0.0832184 0.03568049 0.01570256 0.1551191 0.22260056 -0.042701628 -0.12279856 0.1498458
-0.14737855 -0.09973741 0.0631579 -0.24841404 0.08804186 0.51264006 0.025825368 0.27919802
0.07874396 -0.009503233 -0.09691863 -0.1562105 0.120940566 0.02517358 -0.14678513 0.092131294

sequential/conv2d_1/Conv2D i1 [64, 3, 3, 32]
00000000: 10f4 fe1c ed0b fdef 03eb cfc3 d7f3 2e1b
00000010: 1ff5 fdfa fcfd f8c1 0802 1b14 1509 0416
00000020: 100e fcb5 fb0a f7e7 3adf d0ee 0be6 0d18
00000030: 16dc ed0a fe0a f4e1 0008 e5f5 f700 08e7
00000040: ea13 e8e1 e8ee eb2e 259b 0115 0ec9 95bb
00000050: 01e4 ec1a 1cca 00f0 f009 bac1 0ae4 eb06
00000060: da01 d00e ee13 e6d7 b6ea afac b50b 2a2a
00000070: 19b3 11e9 b50e c6bf 02da 25f3 f00c dffd
00000080: e217 e1ee 0b15 16ce 28db cad6 f3e3 3213
00000090: 03fe 11d1 e00a f41d e1f8 110f fcfd f9e2
000000a0: 093b e492 f5fa e53d f0c5 2525 22e7 1ce7
000000b0: 030b 0ae5 2100 fa11 ddfc cea8 11e8 e3da
000000c0: bfd0 3410 03f1 e1d0 8115 e2d7 b21f 1516
000000d0: d90b f3a4 a8fa d4b6 0cf0 23e6 f00e ff04
000000e0: ee1c daf2 ff06 e2c0 f3fb dcd7 d30d 1e07
000000f0: ff0e fad7 e91e da20 e80b 0f16 f302 0bd4
16 -12 -2 28 -19 11 -3 -17
3 -21 -49 -61 -41 -13 46 27
31 -11 -3 -6 -4 -3 -8 -63
8 2 27 20 21 9 4 22
16 14 -4 -75 -5 10 -9 -25
58 -33 -48 -18 11 -26 13 24
22 -36 -19 10 -2 10 -12 -31
0 8 -27 -11 -9 0 8 -25
-22 19 -24 -31 -24 -18 -21 46
37 -101 1 21 14 -55 -107 -69
1 -28 -20 26 28 -54 0 -16
-16 9 -70 -63 10 -28 -21 6
-38 1 -48 14 -18 19 -26 -41
-74 -22 -81 -84 -75 11 42 42
25 -77 17 -23 -75 14 -58 -65
2 -38 37 -13 -16 12 -33 -3
-30 23 -31 -18 11 21 22 -50
40 -37 -54 -42 -13 -29 50 19
3 -2 17 -47 -32 10 -12 29
-31 -8 17 15 -4 -3 -7 -30
9 59 -28 -110 -11 -6 -27 61
-16 -59 37 37 34 -25 28 -25
3 11 10 -27 33 0 -6 17
-35 -4 -50 -88 17 -24 -29 -38
-65 -48 52 16 3 -15 -31 -48
-127 21 -30 -41 -78 31 21 22
-39 11 -13 -92 -88 -6 -44 -74
12 -16 35 -26 -16 14 -1 4
-18 28 -38 -14 -1 6 -30 -64
-13 -5 -36 -41 -45 13 30 7
-1 14 -6 -41 -23 30 -38 32
-24 11 15 22 -13 2 11 -44

sequential/dense/MatMul i1 [10, 9216] scale=0.004585933 zero_point=0
00000000: fef4 e500 fc03 fef2 03f7 01fc fe07 f600
00000010: 04ff 0dfd 18e5 f6fc 03ff fef1 dced 03fc
00000020: 0103 0cfe fe1d e305 fc05 f904 0bfd 00fe
00000030: 0503 0100 09fe 0cfe e705 ed04 fef1 fef9
00000040: f600 00fe fffc f7f5 0302 f900 f809 f3f4
00000050: e8fa 0303 fde3 effa fb00 fbff eaea 00fd
00000060: de02 f501 fb0a e00e 05f6 fff7 f3fe 00ff
00000070: f6fd fe05 00f0 02fe e8fe f8ff fdfd 03ff
00000080: eb03 0bef fafc f1e3 f6fe 05ff 04ea e5fa
00000090: e3ff 0102 09f8 07fb faf8 f403 dcf6 f7f9
000000a0: e500 fffa ef07 01ef 14dd f4f5 f903 f800
000000b0: 0ef6 fe07 f0fc 05ff 0906 f0fd f9fd 05fb
000000c0: 0df1 0cf8 fa07 0410 fa1e f3f9 0be4 f90c
000000d0: f3ff 10f7 1303 fdf6 f2e5 f9fb edfa e5f9
000000e0: 0bfc ef01 e50e e510 e5f3 f9fd 03f5 fbdd
000000f0: 0afb fdfe 1106 f6fb fa04 dee9 00ef 0504
-0.009171866 -0.055031195 -0.123820186 0.0 -0.018343732 0.013757799 -0.009171866 -0.06420306
0.013757799 -0.041273396 0.004585933 -0.018343732 -0.009171866 0.03210153 -0.04585933 0.0
0.018343732 -0.004585933 0.05961713 -0.013757799 0.11006239 -0.123820186 -0.04585933 -0.018343732
0.013757799 -0.004585933 -0.009171866 -0.06878899 -0.16509359 -0.08713272 0.013757799 -0.018343732
0.004585933 0.013757799 0.055031195 -0.009171866 -0.009171866 0.13299206 -0.13299206 0.022929665
-0.018343732 0.022929665 -0.03210153 0.018343732 0.050445262 -0.013757799 0.0 -0.009171866
0.022929665 0.013757799 0.004585933 0.0 0.041273396 -0.009171866 0.055031195 -0.009171866
-0.11464833 0.022929665 -0.08713272 0.018343732 -0.009171866 -0.06878899 -0.009171866 -0.03210153
-0.04585933 0.0 0.0 -0.009171866 -0.004585933 -0.018343732 -0.041273396 -0.050445262
0.013757799 0.009171866 -0.03210153 0.0 -0.036687464 0.041273396 -0.05961713 -0.055031195
-0.11006239 -0.027515598 0.013757799 0.013757799 -0.013757799 -0.13299206 -0.07796086 -0.027515598
-0.022929665 0.0 -0.022929665 -0.004585933 -0.100890525 -0.100890525 0.0 -0.013757799
-0.15592173 0.009171866 -0.050445262 0.004585933 -0.022929665 0.04585933 -0.14674985 0.06420306
0.022929665 -0.04585933 -0.004585933 -0.041273396 -0.05961713 -0.009171866 0.0 -0.004585933
-0.04585933 -0.013757799 -0.009171866 0.022929665 0.0 -0.07337493 0.009171866 -0.009171866
-0.11006239 -0.009171866 -0.036687464 -0.004585933 -0.013757799 -0.013757799 0.013757799 -0.004585933
-0.096304595 0.013757799 0.050445262 -0.07796086 -0.027515598 -0.018343732 -0.06878899 -0.13299206
-0.04585933 -0.009171866 0.022929665 -0.004585933 0.018343732 -0.100890525 -0.123820186 -0.027515598
-0.13299206 -0.004585933 0.004585933 0.009171866 0.041273396 -0.036687464 0.03210153 -0.022929665
-0.027515598 -0.036687464 -0.055031195 0.013757799 -0.16509359 -0.04585933 -0.041273396 -0.03210153
-0.123820186 0.0 -0.004585933 -0.027515598 -0.07796086 0.03210153 0.004585933 -0.07796086
0.09171866 -0.16050765 -0.055031195 -0.050445262 -0.03210153 0.013757799 -0.036687464 0.0
0.06420306 -0.04585933 -0.009171866 0.03210153 -0.07337493 -0.018343732 0.022929665 -0.004585933
0.041273396 0.027515598 -0.07337493 -0.013757799 -0.03210153 -0.013757799 0.022929665 -0.022929665
0.05961713 -0.06878899 0.055031195 -0.036687464 -0.027515598 0.03210153 0.018343732 0.07337493
-0.027515598 0.13757798 -0.05961713 -0.03210153 0.050445262 -0.12840612 -0.03210153 0.055031195
-0.05961713 -0.004585933 0.07337493 -0.041273396 0.08713272 0.013757799 -0.013757799 -0.04585933
-0.06420306 -0.123820186 -0.03210153 -0.022929665 -0.08713272 -0.027515598 -0.123820186 -0.03210153
0.050445262 -0.018343732 -0.07796086 0.004585933 -0.123820186 0.06420306 -0.123820186 0.07337493
-0.123820186 -0.05961713 -0.03210153 -0.013757799 0.013757799 -0.050445262 -0.022929665 -0.16050765
0.04585933 -0.022929665 -0.013757799 -0.009171866 0.07796086 0.027515598 -0.04585933 -0.022929665
-0.027515598 0.018343732 -0.15592173 -0.105476454 0.0 -0.07796086 0.022929665 0.018343732
